actor.pt (torch, 315203 bytes, 88 tensors)

gnn_base.gnn.embed_layer.layer_norm.weight f4 [16]
000000 e3 b5 39 3c 19 3d 00 3f 23 fa ce 3e 5e 07 17 3d
       0.011334869 0.5009323 0.40425214 0.03687226
000010 5a 75 98 3e 40 66 4d 3f ca 2b 3a 3f 88 4b 9f 3e
       0.29777032 0.80234146 0.72723067 0.31112313
000020 36 ad 35 3f d7 89 0c 3f bc 9f 1b 3f 61 d6 14 3f
       0.70967424 0.54897827 0.6079061 0.58139616
000030 e1 6b 08 3f 94 eb 11 3f ef 52 6b 3e d0 b3 85 3e
       0.5328961 0.5700009 0.22980855 0.2611375

gnn_base.gnn.embed_layer.layer_norm.bias f4 [16]
000000 3a 45 aa 3c 34 d2 65 be c3 85 62 3e 3d 17 3b 3e
       0.020784963 -0.22443467 0.22121339 0.18270583
000010 a5 7f 19 3e 9a 16 b0 bd d1 f4 e4 bd 78 65 c4 3d
       0.14990099 -0.08598061 -0.111795075 0.09589666
000020 35 38 61 3e 79 af d6 3d 72 c7 81 3c 02 5e 82 be
       0.21994098 0.104826875 0.015842173 -0.25462347
000030 7e 95 c0 3d f6 e3 87 bd 51 5a 88 bd 18 d6 c8 3e
       0.09403513 -0.06635277 -0.066578515 0.3922584

gnn_base.gnn.embed_layer.entity_embed.weight f4 [3, 2]
000000 c1 b8 d9 3f cb e8 ab 3d a0 bb 06 c0 73 3d 5d 3f
       1.7009507 0.08394011 -2.1052017 0.8642189
000010 17 c5 4f bf c3 91 ea bf
       -0.8116011 -1.8325733

gnn_base.gnn.embed_layer.lin1.weight f4 [16, 9]
000000 56 e4 62 be 9f 0f 1d bf 67 de 1a 3f 09 6c 32 3f
       -0.22157416 -0.6135196 0.6049561 0.696961
000010 c0 30 8e be bc df 67 bf 90 f0 ea 3e 15 61 47 be
       -0.27771568 -0.90575767 0.4588666 -0.19470628
000020 f4 65 a9 be 7c 87 89 bf fb 29 fd be 44 aa 00 3f
       -0.33085597 -1.0744472 -0.4944609 0.50259805
000030 32 23 10 bf a1 17 01 3f 10 50 ef 3e cf 20 28 3f
       -0.56303704 0.5042668 0.4674077 0.6567506
000040 e3 4e 00 3f 33 53 81 be 8c 09 4d bd be ef 85 3f
       0.5012037 -0.25258788 -0.050057933 1.0463789
000050 29 5d 18 3f 1c 06 bb bd b5 ee d4 3d 0c fb 46 3f
       0.5951715 -0.09132025 0.10397092 0.7772682
000060 fb a9 e1 3e 37 82 cf bb f6 81 62 bf 7f 4a 81 3e
       0.44074997 -0.0063326615 -0.88479555 0.25252149
000070 bf 3e d2 be e5 6b 56 3f 42 fa 75 bf de e9 ca 3d
       -0.41063496 0.83758384 -0.9608499 0.09907888
000080 94 23 c7 3e 03 43 09 3f f8 32 61 3e 66 72 07 3d
       0.3889433 0.53617877 0.219921 0.033068083
000090 d5 bf b9 be 85 0e 86 bf 21 4e 7d 3e 14 ce 8c bf
       -0.3627917 -1.0473181 0.24736835 -1.100039
0000a0 c4 ba de 3e 41 31 16 bf 8b fa 08 be f0 af 84 bf
       0.43501866 -0.58668905 -0.13376825 -1.0366192
0000b0 62 6c ba be bb c0 ec be 41 4b 1b be 70 f5 f5 bf
       -0.36410815 -0.46240792 -0.15165426 -1.9215527
0000c0 72 c3 3e 3f 2f 67 82 bd 71 ed 9e be d8 72 6a 3f
       0.74516976 -0.06367337 -0.31040528 0.9158149
0000d0 14 3e a1 bd c4 ec 70 bf ea 9e 1f bf a5 79 7f 3e
       -0.078731686 -0.94111276 -0.6235186 0.24948747
0000e0 7e 19 b0 3e 8b f8 b9 be 18 60 a3 be 35 ac 87 bf
       0.3439445 -0.36322436 -0.3190925 -1.0599428
0000f0 93 57 8d bf ef d9 be 3f 66 46 bb bd 41 4b 7b bf
       -1.104235 1.4910258 -0.09144287 -0.98161703
000100 70 98 aa bd 1f 5d b6 bf 75 fb 09 3f d1 35 ec be
       -0.083298564 -1.4247168 0.5389932 -0.4613481
000110 70 aa 4e 3d 0f 15 9b bd ac 48 04 3f ee ca 3b 3f
       0.05045551 -0.07572376 0.5167339 0.7335652
000120 51 d0 c2 3e be 17 cd be 8e e0 aa bf 8f 4b df 3e
       0.38049558 -0.40057176 -1.3349779 0.43612334
000130 93 b6 b8 bf 7c d6 10 3f 37 7c 4e bf e9 46 3e 3f
       -1.4430717 0.5657728 -0.80658287 0.7432695
000140 57 f4 2d 3e 3e 72 02 3f db ad 77 3f 87 41 8a bf
       0.1698774 0.5095557 0.9674966 -1.0801247
000150 b8 e2 ef be 48 08 08 3e b3 5e 9c bf ed 4d 12 3f
       -0.4685266 0.13284409 -1.22164 0.57150155
000160 c9 74 8d 3e 03 f6 07 bf 7d c8 94 3f bc 26 22 be
       0.27628163 -0.5310976 1.1623684 -0.15835088
000170 4d d6 21 3f e8 4f eb 3d 39 92 70 3f df 0c 07 bd
       0.6321762 0.1148985 0.9397312 -0.03297126
000180 fe b1 0e 3f 42 13 64 3f c9 b9 ac 3e 63 9c 55 3f
       0.55740345 0.89091885 0.33735493 0.8344175
000190 32 db 9e 3f 2c 13 4f 3f c0 98 fc bd b2 d5 28 bf
       1.2410643 0.8088863 -0.12333822 -0.65951073
0001a0 55 9a 27 3f 6b 3e 80 3e fd 25 2d be a0 f1 2a 3f
       0.65469867 0.2504762 -0.16909023 0.6677494
0001b0 1c 89 ff bd fe 1e bb 3f a4 6a 05 be b7 1d 8e 3e
       -0.124773234 1.4618833 -0.13028961 0.27757046
0001c0 0f 3a 91 3c 79 ef 97 3d aa 1d 45 bf b6 0a 34 bf
       0.01772788 0.07418723 -0.7699839 -0.70328844
0001d0 9a 68 48 3e 86 43 45 3f 8c b8 a8 3e 1c e4 c6 3e
       0.19571152 0.7705616 0.32953298 0.3884591
0001e0 3a f8 96 3f da f4 f5 3b b1 c4 8a 3f 76 79 a3 be
       1.1794503 0.007505995 1.0841275 -0.31928605
0001f0 c8 55 af 3e c1 f7 22 bf 09 32 17 3e ca 0b be bf
       0.34245133 -0.6365929 0.1476518 -1.4847348
000200 b3 81 a2 be 60 8f 40 3d ac 8d 4f 3e 0d 1f c9 be
       -0.31739578 0.047011733 0.20268887 -0.39281502
000210 d8 a6 be be 67 54 c3 be 5c a7 44 bf 2b 1a a3 bf
       -0.37236667 -0.3815033 -0.7681787 -1.2742361
000220 c5 24 25 3f 8c 61 31 3f 03 fe ee 3e b4 47 89 3e
       0.6450923 0.6928947 0.4667817 0.26812518
000230 12 e6 14 bf ac 3c c5 be ca 22 26 bf 84 e1 70 bf
       -0.5816356 -0.3852285 -0.64896834 -0.9409411

gnn_base.gnn.embed_layer.lin1.bias f4 [16]
000000 d9 52 98 be fd da 84 3e 94 a8 6e be 01 44 c3 be
       -0.29750708 0.25948325 -0.23306495 -0.3813782
000010 64 58 c0 bd 32 9c 91 3e b5 54 34 be 34 df f3 be
       -0.09391859 0.2843948 -0.17610438 -0.47631228
000020 40 ef 7a 3e b3 b8 15 be 84 e2 48 be 51 b5 09 3e
       0.24505329 -0.14621238 -0.19617659 0.13448073
000030 cd 5a 5c be 61 08 34 be 08 98 28 be df 9b 69 be
       -0.21519013 -0.17581321 -0.16464245 -0.22813366

gnn_base.gnn.embed_layer.layers.0.weight f4 [16, 16]
000000 b1 76 d1 be 70 af 90 bd 4e 6d 18 3f dc 35 62 bf
       -0.40910867 -0.07064712 0.59541786 -0.8836343
000010 05 14 61 bf 57 25 9a 3e 2c c7 28 3e 65 c5 bd 3e
       -0.8792117 0.30106613 0.16482228 0.37064663
000020 cd 62 b0 3f 6a 47 a4 3d 53 b3 91 be 99 02 83 bf
       1.3780152 0.08021434 -0.28457126 -1.0235168
000030 bd d7 cc be fb 95 d2 3f 15 c2 7a 3f 3a ee e4 be
       -0.40008345 1.645202 0.97952396 -0.44713002
000040 e8 d1 b4 3d bb 88 59 3e b8 0a 3b bf 54 26 02 3f
       0.08829099 0.21243565 -0.7306323 0.50839734
000050 2e fd 06 bf 91 05 e5 3e 11 7e f3 3c dd d2 37 bf
       -0.5273007 0.4473081 0.0297232 -0.71806127
000060 3b 52 aa bb fb 52 15 3f 4a ed c0 bf 68 7c 0b 3f
       -0.005197791 0.58329743 -1.5072415 0.54486704
000070 ab 0b 09 bf cc c5 78 3e bb 6b e8 3e 4b e3 38 bf
       -0.5353343 0.24294204 0.45394692 -0.7222182
000080 24 96 64 3f 47 95 58 bf 59 9a cb be e3 78 99 3e
       0.89291596 -0.8460278 -0.39766195 0.29975042
000090 7e cd e7 be d9 e5 c9 3e 25 12 f5 be 4c ab b7 bd
       -0.45273966 0.39433172 -0.47865406 -0.08968219
0000a0 38 0d bd be bc ca 32 3e 35 49 ee 3c 8c 2a a2 bf
       -0.36924148 0.1746015 0.029087642 -1.2669234
0000b0 8e b1 84 bd be ea 0b 3f 9a 96 d6 3e 8f 87 37 bf
       -0.06479178 0.54655063 0.41911775 -0.7169122
0000c0 9f 72 6b 3e 9b 35 ea bd 5c db f1 3e 3a 7f 82 3f
       0.22992943 -0.11436006 0.4723767 1.0195076
0000d0 f8 3e 76 3e f9 6d a2 bf d8 a4 7a bf 21 7b 0c bf
       0.24047458 -1.2689811 -0.9790778 -0.5487538
0000e0 e0 90 0d 3e e2 91 17 3d aa 25 97 3f 19 9e 95 3f
       0.13824797 0.03700436 1.1808369 1.1688873
0000f0 68 d4 fe 3e 59 9c 36 3f 5f f3 d5 bf cd 5b 5f be
       0.49771428 0.7133232 -1.6714896 -0.21812363
000100 bb fe 0c bf 8f 31 d7 3d 36 7f b4 3e ba 2d 8a be
       -0.5507619 0.105074994 0.35253304 -0.26988012
000110 9d 45 68 3d 8c 18 c8 3f a8 48 73 bf 93 8c 03 3f
       0.056707013 1.5632491 -0.9503274 0.51386374
000120 aa 9d 93 3e 9e c8 65 3f 16 2e 5a bf 8f de d9 be
       0.28831226 0.8975924 -0.8522657 -0.4255261
000130 1c 4f c0 be 17 b5 83 3e 4d 0d 92 be 25 28 36 bf
       -0.37560356 0.25724098 -0.28525773 -0.71155006
000140 13 af 49 bd 76 af 0e bf a6 7f 1a bf dd 87 02 bf
       -0.04923923 -0.5573648 -0.60351026 -0.5098856
000150 ec 71 bc 3f e2 ff 07 bf 58 c2 35 bf 54 b5 87 be
       1.4722266 -0.5312482 -0.7099967 -0.2650553
000160 90 6e cd be 9a 50 01 bf 95 f0 89 bf 18 5f b5 3e
       -0.40123415 -0.50513613 -1.0776545 0.35424113
000170 98 8b 11 3f cb 72 e3 3e 9e be 42 3f 45 c7 98 3f
       0.5685363 0.44423518 0.7607211 1.1935812
000180 43 f2 16 3f 36 ea 8e 3f 8c fd 2b bf c7 58 66 3f
       0.5896341 1.1165226 -0.67183757 0.89979213
000190 7c aa aa 3e ba f4 9d 3f 50 e0 b8 bf c4 7d 53 bf
       0.33333194 1.234031 -1.4443455 -0.8261378
0001a0 cb 58 87 be 68 b9 2d be 67 74 bf 3d e3 34 0a bf
       -0.2643493 -0.16965258 0.09348374 -0.5398695
0001b0 db 14 8d bf 22 47 dc be 30 30 c9 3d 90 66 40 bf
       -1.102199 -0.4302302 0.09823644 -0.751565
0001c0 40 0e 15 be 73 1f b5 be 01 b4 3c 3f e6 f8 da be
       -0.14556217 -0.35375556 0.73712164 -0.4276802
0001d0 64 ef 93 be cd 51 1e 3f 48 e8 88 3f 0c 99 aa be
       -0.28893578 0.6184357 1.0695887 -0.3331989
0001e0 4b 86 89 3f 1f 05 8a bf 9c 87 1f be 36 db 9a be
       1.0744108 -1.0782813 -0.15579075 -0.3024537
0001f0 d5 fe 24 3e bf 01 42 be c9 0a 4d 3d 1a 46 0e be
       0.16112836 -0.18945979 0.050059114 -0.13893929
000200 3a 6d 02 be 72 57 cc 3e 0e 13 bf 3e 63 ad 7b 3f
       -0.12736979 0.39910465 0.37319225 0.9831144
000210 a5 e1 93 3d 15 d1 a7 be 62 c1 c1 be 3f 11 89 3e
       0.07220773 -0.32776704 -0.37842852 0.2677097
000220 c5 39 fc be ed 10 d2 3c 33 9e 9a 3e e2 83 79 3f
       -0.49262825 0.025642836 0.3019882 0.9746686
000230 e8 3b ab bf ef c4 25 bf 7d 21 b5 bc 91 c2 14 bf
       -1.3377657 -0.6475362 -0.022110695 -0.58109385
000240 43 4e 7c 3d fb 54 3c 3e 46 cf 34 3e 22 04 ca be
       0.061598074 0.18391792 0.17657194 -0.39456278
000250 31 04 de bc 1c 0a ba 3f f2 4d 6a 3e 71 db 54 3e
       -0.027101608 1.4534335 0.22881296 0.20786835
000260 92 f7 fc be d5 9f b8 3d bf 14 4f 3d eb 6a 5d 3e
       -0.4940763 0.090148605 0.050556894 0.21622817
000270 c1 d1 9d bf 5d 7b 18 3d a9 fa 2c bf bc 1c d6 be
       -1.2329637 0.037227023 -0.6756998 -0.41818798
000280 fd a3 2c 3e 25 36 06 3e d9 b1 ef be c8 c8 a6 be
       0.16859432 0.13106592 -0.46815374 -0.3257506
000290 65 67 fb be a9 90 dd 3e 71 9c fb 3e 57 3a 94 bd
       -0.4910232 0.4327443 0.49142793 -0.0723769
0002a0 42 32 28 3e 3c c6 62 bf f0 df 4b 3f aa 3d f2 be
       0.16425422 -0.8858373 0.79638577 -0.4731267
0002b0 4b 99 10 bf e7 ed 1f bd 6b c0 4e 3f 0d c9 16 3f
       -0.56483907 -0.03904524 0.80762357 0.5890053
0002c0 48 2c 0a 3f ae 3e a6 3e 8f ae 96 3e c1 a7 1c 3f
       0.5397382 0.32469696 0.29430053 0.6119347
0002d0 fc 80 10 be 1f 42 70 3d 29 97 a4 3f 54 df d4 3d
       -0.14111704 0.058656808 1.285863 0.10394159
0002e0 31 c0 ab bf 90 5e 49 bf 0d 9c 9f be 5d cc b5 bd
       -1.3418027 -0.78659916 -0.31173745 -0.0887687
0002f0 66 8e 19 3f ca d0 24 bf 43 0b 5f be 57 38 d7 3e
       0.5998291 -0.64381087 -0.2178164 0.4203517
000300 5c 9d 59 be 5f 3f b6 bf 7a 75 56 bf 29 89 d1 3d
       -0.21251434 -1.4238089 -0.83773005 0.10231239
000310 88 df 73 bf 4b 90 41 bf 1a 57 5e 3f cb 36 67 3f
       -0.95262957 -0.756108 0.86851656 0.9031798
000320 c4 4b ea 3f 26 a9 5a bf e2 fb aa be a3 6c 80 3e
       1.8304372 -0.8541435 -0.33395296 0.25082883
000330 8e 7f a1 bd 4a aa 81 3f c6 93 98 be ad 9b 65 bf
       -0.07885657 1.0130093 -0.29800242 -0.8969067
000340 36 cf 57 3d 52 8f 28 3f 08 1c 00 3f 2a 6b 34 3c
       0.052687846 0.6584369 0.5004277 0.011011878
000350 5a c5 52 bd 4e aa b0 be 90 64 93 be 19 0a 8a bf
       -0.05145774 -0.34504932 -0.2878766 -1.0784332
000360 e9 0e 8d be f9 c7 01 bf ae 7c 5a bf e2 ac 84 be
       -0.27550438 -0.5069576 -0.85346496 -0.2591315
000370 62 9c 12 bf 15 88 15 be b6 7b ad be 7b 70 92 3e
       -0.5726987 -0.14602692 -0.33883446 0.2860144
000380 ca 95 c6 3e df 67 f1 be 4a c4 45 be 8c 35 81 be
       0.38786155 -0.4714956 -0.1931316 -0.25236166
000390 c3 ff 22 bf 21 ca 33 3c 36 49 60 bf f8 7b 7e be
       -0.6367151 0.010973484 -0.8761171 -0.24851978
0003a0 65 17 2b 3e 96 ac 25 bf 37 cf 64 be bf cf a0 3f
       0.16708143 -0.6471647 -0.22344671 1.2563399
0003b0 34 40 75 3f 87 65 ac 3e 8d 40 65 bf ec ce 36 3e
       0.9580109 0.3367121 -0.8955162 0.17852372
0003c0 fe 82 7a be 91 cf 05 bf 12 87 5f 3f fa 4f 94 be
       -0.24464032 -0.52269846 0.87315476 -0.28967267
0003d0 6e df c5 bf 50 2b 26 bd 4a 25 d5 be d1 c1 45 be
       -1.545881 -0.04056865 -0.41630012 -0.19312216
0003e0 19 17 6d bf a8 cf 42 3f 04 e5 87 3f e4 83 b7 3f
       -0.9261337 0.7609811 1.0616765 1.4337125
0003f0 11 08 81 be 83 9e 46 3f 55 10 e2 3d 98 86 b0 bf
       -0.25201467 0.7758562 0.11038271 -1.3791075

gnn_base.gnn.embed_layer.layers.0.bias f4 [16]
000000 14 4e 44 bd ac 44 a8 be b3 a2 29 bf af 84 d3 3d
       -0.047926024 -0.32864892 -0.66263884 0.10328042
000010 76 f1 26 3d 74 49 5b be cf 43 44 3e 19 22 2d 3e
       0.04075762 -0.21414739 0.19166492 0.16907538
000020 e2 ca 24 be 65 2f 13 bd 25 dd a0 be bf 42 81 3d
       -0.16093019 -0.03593387 -0.3141872 0.06311559
000030 3f df 1e 3f d4 0b e5 be 3f 81 4d be 8d f2 49 be
       0.62059397 -0.44735587 -0.20068835 -0.19721432

gnn_base.gnn.embed_layer.layers.2.weight f4 [16]
000000 e3 b5 39 3c 19 3d 00 3f 23 fa ce 3e 5e 07 17 3d
       0.011334869 0.5009323 0.40425214 0.03687226
000010 5a 75 98 3e 40 66 4d 3f ca 2b 3a 3f 88 4b 9f 3e
       0.29777032 0.80234146 0.72723067 0.31112313
000020 36 ad 35 3f d7 89 0c 3f bc 9f 1b 3f 61 d6 14 3f
       0.70967424 0.54897827 0.6079061 0.58139616
000030 e1 6b 08 3f 94 eb 11 3f ef 52 6b 3e d0 b3 85 3e
       0.5328961 0.5700009 0.22980855 0.2611375

gnn_base.gnn.embed_layer.layers.2.bias f4 [16]
000000 3a 45 aa 3c 34 d2 65 be c3 85 62 3e 3d 17 3b 3e
       0.020784963 -0.22443467 0.22121339 0.18270583
000010 a5 7f 19 3e 9a 16 b0 bd d1 f4 e4 bd 78 65 c4 3d
       0.14990099 -0.08598061 -0.111795075 0.09589666
000020 35 38 61 3e 79 af d6 3d 72 c7 81 3c 02 5e 82 be
       0.21994098 0.104826875 0.015842173 -0.25462347
000030 7e 95 c0 3d f6 e3 87 bd 51 5a 88 bd 18 d6 c8 3e
       0.09403513 -0.06635277 -0.066578515 0.3922584

gnn_base.gnn.gnn1.lin_key.weight f4 [48, 16]
000000 01 55 72 3e d9 77 38 3e 03 2c e6 3e de f2 d7 be
       0.23665239 0.18014468 0.44955453 -0.4217748
000010 30 55 75 be 3c 78 b2 3e d9 86 2c 3d 4d 90 22 3f
       -0.23958278 0.34857357 0.04212079 0.63501436
000020 4a 3a eb bd 03 69 46 3f e6 9b 29 3f 45 95 f4 be
       -0.11485727 0.77503985 0.6625351 -0.47770134
000030 b6 f9 1e be 94 9c 36 bf 5c a7 59 bf 41 a1 a9 3e
       -0.15524945 -0.7133267 -0.85020995 0.3313084
000040 84 f5 b7 be be 94 b1 3d 40 53 7d 3f 9f 9a d8 bd
       -0.359295 0.086709484 0.98955154 -0.10576367
000050 26 14 04 3f 17 ac 20 bf 07 43 75 be 3f 5e 88 be
       0.51593244 -0.6276259 -0.2395135 -0.26634404
000060 6c 3f 43 be b5 72 44 3f 15 27 85 bf 67 f6 86 bf
       -0.19067162 0.7673753 -1.0402552 -1.0543946
000070 45 2f 4b be 59 8c c9 be 60 93 3c 3e ee 03 cc 3e
       -0.1984225 -0.3936489 0.18415594 0.39846748
000080 ea 5c 04 bd 24 3c d0 be 06 e7 58 bf 39 e2 03 3f
       -0.032315172 -0.40670884 -0.84727514 0.51517063
000090 83 ca fa bd ea b8 1d be 5b cc 30 be 1f af d1 be
       -0.12245657 -0.1540257 -0.17265455 -0.4095392
0000a0 b2 19 21 3f be 17 c0 be 2d fd 9f 3e c3 28 0f 3f
       0.6292983 -0.37518114 0.31247845 0.5592157
0000b0 ee 3f d6 3e 7b f5 97 3e b1 e9 18 3b d5 77 0e 3f
       0.4184565 0.29679474 0.002333265 0.556516
0000c0 52 f6 8e 3d 3a e2 03 3e 9e f6 c4 be 53 ac a6 ba
       0.069805756 0.12879267 -0.38469404 -0.0012716152
0000d0 09 ab 1e bf 23 3f 35 3f 6b 00 61 3e f0 4c 29 3f
       -0.6197973 0.70799464 0.21972816 0.6613302
0000e0 1e 2a c5 be 4a 1f 93 be 82 cd aa 3f 7e e7 39 3f
       -0.38508695 -0.2873481 1.3343966 0.72618854
0000f0 cf 8d cd 3d 44 f3 aa 3b 46 c0 66 bf 58 44 6e be
       0.100368135 0.005216988 -0.90137136 -0.23268259
000100 97 20 1d 3e 33 42 43 3e 48 30 73 bf 89 5e ac 3d
       0.15344463 0.19068222 -0.94995546 0.08416469
000110 dc 0d 11 bf 4a 31 5b bd db a2 c2 3d de 7e b2 be
       -0.5666177 -0.053513803 0.095037185 -0.34862417
000120 ab e5 08 3f 98 81 4b bf 7c ce 25 3f 0d 9d b9 3f
       0.53475446 -0.7949462 0.64768195 1.4501053
000130 92 b4 2a be 27 0e 45 3f 39 73 02 3e 51 59 0b bd
       -0.16670445 0.7697472 0.12739266 -0.034020726
000140 d3 fc 09 3e 7e 1c 72 3c 90 4b 3e 3f df 35 e0 3d
       0.13475351 0.014777301 0.7433405 0.10947775
000150 61 ff 0d 3f e6 49 e3 be 72 2a 62 be 9d 2e eb be
       0.554678 -0.44392318 -0.22086504 -0.45934
000160 47 5f 59 be fe 49 55 3e 65 e6 98 bf 1a 20 95 bf
       -0.21227752 0.20829007 -1.1945311 -1.1650422
000170 a8 c3 25 3e 8d 22 4b be cc a0 8d 3f ca 89 04 be
       0.16187918 -0.19837399 1.1064696 -0.12943187
000180 8e 97 81 be 55 d5 8a be 62 17 46 3c 43 e8 09 3f
       -0.2531094 -0.27115884 0.012090536 0.5387003
000190 2d cd ce bd 1b 98 eb be 79 3b 8e 3e f2 73 28 bf
       -0.10097728 -0.46014485 0.2777975 -0.6580192
0001a0 de b4 c1 3d c9 fd ef be aa c8 d6 be 91 08 c1 3e
       0.09458326 -0.4687331 -0.4194997 0.37701848
0001b0 63 6c aa 3e 7d de 41 3f 3e 6b 1d 3f 01 f8 ee be
       0.33285818 0.75730115 0.61491764 -0.46673587
0001c0 4a 5a 7d be 41 e6 88 bf 92 af 0e 3f 82 c7 8d 3e
       -0.24741474 -1.0695268 0.5573665 0.27691275
0001d0 6f 1c 5f 3f ee 80 9d 3e 81 a5 f2 3d b8 d0 04 3f
       0.8715276 0.30762428 0.118479736 0.5188098
0001e0 96 9c 3d bf 95 66 3c be b3 67 9e 3e 10 2b ba be
       -0.74067056 -0.18398507 0.3093849 -0.3636098
0001f0 f6 81 53 3f 44 e0 1c bf ff 58 81 bd aa 36 6a be
       0.8262018 -0.612797 -0.06315803 -0.22872415
000200 cc 54 39 bc 5c fc 06 3e 14 fd ec bd 8a 25 29 bd
       -0.011311721 0.13182205 -0.11571708 -0.041295566
000210 4b a2 e3 be 38 92 80 be 8e 14 25 3e 2f 80 d4 be
       -0.44459757 -0.25111556 0.16121122 -0.41504046
000220 12 d3 05 3f da 5d 40 3e 15 15 07 be 19 36 b9 3e
       0.5227519 0.18785802 -0.13191636 0.36174086
000230 84 a1 22 bf cf ff 1b 3f 8c 7f 82 3d e7 fa a3 3e
       -0.63527703 0.6093721 0.06371984 0.3202736
000240 1e 43 9a 3e c1 b6 bc 3d d5 fe f6 3e 0b c4 8c 3e
       0.3012933 0.09214545 0.48241296 0.2749332
000250 3a 0e ca be 5f 4c 4e 3e 81 e9 af be 20 84 21 3f
       -0.3946398 0.20146321 -0.34357837 0.6309223
000260 61 91 b2 be d0 96 70 be 20 8a 38 3e 58 28 cd 3e
       -0.3487654 -0.2349503 0.1802144 0.40069842
000270 7e f7 fc bd 68 47 8d be bc 2d e2 be 0c d1 9e 3e
       -0.12351893 -0.2759354 -0.44175518 0.31018865
000280 b5 46 08 3e 13 73 94 bc 84 b5 14 bf e3 60 30 3e
       0.13308223 -0.018121278 -0.5808947 0.1722446
000290 30 7a 5f bf 0d 61 9c 3e 14 0e 4a 3d a6 cf be bb
       -0.8729582 0.30542794 0.049329832 -0.0058230935
0002a0 2c 39 c9 be 61 37 45 bf 73 a3 5b 3e c2 1f 83 3f
       -0.3930143 -0.77037627 0.2144907 1.0244067
0002b0 45 7d 02 3e 41 a0 6a 3d dd 87 b7 3c ad be 0d bf
       0.12743099 0.057281736 0.022403652 -0.55369073
0002c0 66 f0 6d 3e db 53 a7 bd 9f 6f 8e bf 3d 2c e0 3d
       0.23236236 -0.08170291 -1.1127814 0.10945938
0002d0 17 9b 23 be b5 df 19 3f 77 59 91 bd 80 21 ed 3d
       -0.15977131 0.60106975 -0.07097142 0.11578655
0002e0 fa 06 9b bd 66 13 36 bf 47 8e 29 3f 62 d1 a2 3f
       -0.0756969 -0.7112335 0.66232723 1.2720149
0002f0 61 fe a8 3e 8e 5e f7 3e e6 f1 8a be 87 4f d1 be
       0.33006576 0.48314327 -0.2713768 -0.40880987
000300 f7 e4 7a be 24 9f 20 bf 5f e3 05 bf 8b 79 c4 3e
       -0.24501406 -0.6274283 -0.52300066 0.3837398
000310 65 70 32 3f 75 aa d1 3d b3 08 32 3e 9d 51 99 bd
       0.6970275 0.1023759 0.17386131 -0.074862696
000320 70 74 f3 be bb bc 03 bf c4 cf 25 3f 53 f9 b0 3e
       -0.47549772 -0.51459855 0.6477015 0.3456522
000330 ae 06 01 3f c1 a5 9f bc 1b 06 d4 be c0 f5 d9 be
       0.5040082 -0.019488217 -0.41410908 -0.42570305
000340 da 91 cd 3d 5a 25 a4 3f 68 f4 bd be 0b 3c aa 3d
       0.100375846 1.2823899 -0.3710053 0.083122335
000350 31 f1 86 bf e7 5b aa be 13 3b 89 be bf 11 36 be
       -1.0542356 -0.3327324 -0.26802883 -0.17780207
000360 2c 44 d8 3e f1 22 55 3e 95 28 c4 be d1 9a eb 3e
       0.4223951 0.2081411 -0.38312212 0.46016553
000370 fe df 6b bf 65 3e 6e 3f 5a 56 f2 bd 62 b7 57 be
       -0.9213866 0.93063956 -0.118328765 -0.21066049
000380 80 da 01 3f be 1f 13 3f 0b d8 47 3f e0 5d c1 be
       0.5072403 0.5747031 0.7806403 -0.37766933
000390 f8 a2 72 bf 39 79 af be f9 2f fd bc d4 9d 97 3e
       -0.9477992 -0.34272173 -0.030906664 0.296126
0003a0 56 92 d8 3e 61 e2 86 bd ab e8 6a be 3b 44 f6 bd
       0.42299145 -0.06586147 -0.22940318 -0.12024733
0003b0 9d ae 1a bf e5 4b f5 bd ab 47 cb 3e 3b ce 83 bd
       -0.6042269 -0.11977366 0.39703116 -0.0643582
0003c0 c9 33 14 3e e1 70 de 3e af 9b 40 be 58 eb ad be
       0.1447288 0.43445495 -0.18809389 -0.33968616
0003d0 a8 fe 9d be 83 91 6f be 91 43 93 3d 4a bf 08 be
       -0.3085835 -0.23395352 0.07190622 -0.13354221
0003e0 f9 41 57 3f bb a2 50 3e 1f e5 68 3d bf 3b 68 3e
       0.8408504 0.20374577 0.056859132 0.22679041
0003f0 d2 cb 32 bf f0 a0 46 3f 7b 90 77 3d f2 02 ae 3e
       -0.69842255 0.7758932 0.06044052 0.33986622

gnn_base.gnn.gnn1.lin_key.bias f4 [48]
000000 f3 7a da 3d b6 84 98 3d 75 e6 0b 3e ae a6 4d be
       0.10667982 0.074471876 0.13662131 -0.20083115
000010 b8 99 9e 3d b0 73 72 be 22 4b 28 be 25 b1 be bd
       0.07744163 -0.23676944 -0.16434911 -0.093111314
000020 50 b1 c7 bc 7c 93 71 be ec 73 d0 3b 36 f1 23 3d
       -0.024376541 -0.23591417 0.006361475 0.04002496
000030 c3 3f cb bd 57 d3 a5 3d 6d bd 5f 3e d0 d0 2e bd
       -0.09924271 0.080969505 0.21849604 -0.042679608
000040 62 68 08 be da 01 63 be 8f a3 3a be 0a 84 0d be
       -0.13321069 -0.22168675 -0.18226455 -0.138199
000050 70 89 3d be 09 d8 c9 bd bf f4 0c 3e 02 5c a0 3d
       -0.1850946 -0.098556586 0.13765238 0.07830049
000060 37 cc 66 3e 7f 3b 7e 3e 00 a2 b7 bd 2e cd c7 bd
       0.2253884 0.24827383 -0.08966446 -0.09755932
000070 c7 45 0b 3d 14 07 4c be 1f 38 0b 3e e1 f6 38 bd
       0.03400209 -0.19924575 0.13595627 -0.045157317
000080 4c 48 56 be b4 5d 41 be d0 5a 30 be 26 54 8d 3d
       -0.20926017 -0.18883401 -0.17222142 0.06900816
000090 ea 55 44 3e ab b7 4a 3e fc 25 8d bd d4 dc 14 be
       0.19173399 0.19796626 -0.068920106 -0.14537364
0000a0 2b 80 e3 bd d7 bb 2e be 90 c4 83 bd 6d 46 67 be
       -0.111084305 -0.17063843 -0.06433976 -0.22585459
0000b0 98 0f 09 3e 59 7e 70 be c0 84 1f be 34 cb 2b 3e
       0.13384855 -0.23485698 -0.15577984 0.16776735

gnn_base.gnn.gnn1.lin_query.weight f4 [48, 16]
000000 4f ca 1a 3d 5d 2d 3e bf 30 9d 03 3f 86 06 9a 3e
       0.037790593 -0.7428797 0.51411724 0.30083102
000010 4a df 2e 3d 59 e2 b1 be b8 99 21 bf ea 27 28 bf
       0.042693414 -0.34743002 -0.6312518 -0.65685904
000020 db 05 72 3d 1e b2 24 3c df 6c 8c be 15 0c 99 3e
       0.059087615 0.010052232 -0.27426812 0.2989203
000030 43 56 f5 be 20 ec 5c be 97 eb 58 3f c8 af 83 bd
       -0.47917375 -0.2157445 0.8473448 -0.06430012
000040 c3 b5 d0 3d 8f 24 96 be 7b e0 aa bd 4d e5 7a bf
       0.10190918 -0.29324767 -0.083435975 -0.98006135
000050 af 6a 71 bf 06 bd 67 3d 7a 43 d9 3e 22 d5 ce bd
       -0.9430341 0.05657675 0.42434293 -0.100992456
000060 d1 49 d0 3e 4a 34 66 bf e0 b0 8c 3f a6 61 9a 3f
       0.40681317 -0.89923537 1.0991478 1.206105
000070 f8 55 d3 bd 45 79 8f 3f fa d5 c1 be 23 28 b4 be
       -0.103191316 1.1208884 -0.37858564 -0.35186872
000080 30 8e de be 11 0a a8 be 06 43 62 be 59 84 3e 3e
       -0.43467855 -0.3282018 -0.2209588 0.18605174
000090 d5 67 65 3f 60 20 54 bc 58 5b 01 be cd 99 22 bf
       0.8961156 -0.012947172 -0.12632501 -0.6351593
0000a0 ca 68 78 3e 9e ef 77 3f 47 07 ca 3e a2 eb 33 bf
       0.24258724 0.9685 0.39458677 -0.7028142
0000b0 66 ad 8d 3e f8 dd aa be 7a 22 22 3e 28 88 67 be
       0.27671355 -0.33372474 0.15833464 -0.22610533
0000c0 6a f6 32 3f 39 57 49 3e 08 e4 72 3d 22 53 73 3f
       0.6990725 0.19662179 0.0592995 0.95048726
0000d0 ef 5d 33 3f f5 c7 9e be 78 dd 3e bf c1 03 a3 bd
       0.70065206 -0.3101193 -0.74556684 -0.079597004
0000e0 64 25 42 be 85 df 21 3e 7d ff 91 bf ff 7d 2c bf
       -0.18959576 0.15807922 -1.1406094 -0.67379755
0000f0 9f a2 94 3d 08 42 90 bf ee 74 d7 3e 0f e9 0a 3f
       0.0725758 -1.1270151 0.42081398 0.5426187
000100 20 de c6 3d 74 d2 15 3e ec 9e 05 bf 27 be 47 3f
       0.09710336 0.14631063 -0.5219562 0.78024524
000110 b7 3c 80 3f 3f 4e de bc 1e 29 1a 3e 23 13 2d 3e
       1.0018529 -0.02713692 0.15054747 0.16901831
000120 b4 f9 a5 bc f2 12 87 3f 44 3c 92 bd b5 74 7d bf
       -0.02026067 1.0552657 -0.07140401 -0.99006206
000130 bd 16 67 3f 18 74 9d bf 8e cf b6 3d ab 45 9c 3e
       0.9026907 -1.2301054 0.08926307 0.30521902
000140 1d 92 95 3c c6 52 05 3f 0b f9 98 3e 99 c4 10 bf
       0.018258149 0.5207943 0.29877505 -0.56549984
000150 7a b9 9e bf 9e 93 06 3f 14 8e 26 3f 44 97 f9 3d
       -1.2400353 0.52568996 0.65060544 0.12187055
000160 29 8f cf 3d 39 1d dc be 52 1d 85 3f 15 8f 75 3f
       0.101347275 -0.42991045 1.0399573 0.9592145
000170 5e 14 82 be 96 5c ab 3f 6b 1f b1 be e3 1c 84 be
       -0.25406164 1.338763 -0.34594283 -0.2580329
000180 d5 e4 95 bc f2 73 df 3e 00 67 42 bf ce a1 cc 3d
       -0.018297592 0.43643147 -0.75938416 0.09991799
000190 0f ce 9f be dd 05 0c 3d bc 96 42 3f 85 2a 54 3e
       -0.31211898 0.03418528 0.7601125 0.20719345
0001a0 20 45 94 be f0 23 a6 3e cd 20 18 3f c3 28 1b 3e
       -0.28958988 0.32449293 0.5942505 0.15152268
0001b0 28 e9 f8 3e f2 34 21 3e 30 59 80 bf ac fa 16 3e
       0.48615384 0.15742853 -1.0027218 0.14744061
0001c0 5d 22 a9 be fc 29 25 3f 23 14 f3 3e d2 1a af 3e
       -0.3303403 0.6451719 0.474763 0.3420015
0001d0 0c 82 ea be ac d9 86 3d cc 36 30 bf a2 6d d6 be
       -0.45802343 0.06584486 -0.68833613 -0.41880518
0001e0 34 63 17 3e 5a 96 bd 3e 0c e0 ae b8 17 88 44 3e
       0.14783937 0.37028772 -8.3386985e-05 0.19192539
0001f0 57 52 83 bf 94 fa 99 3e 3c e9 8c be c3 bd ab bc
       -1.0259503 0.30073988 -0.27521694 -0.020964509
000200 56 67 ed 3d 11 7d 95 be 9c 09 1e be 8d 7d b6 bd
       0.115919754 -0.2919698 -0.15433353 -0.08910666
000210 2d cc 97 be 16 b5 a4 be b5 3e 32 3f 94 8b 47 be
       -0.2964796 -0.32169408 0.69626933 -0.19486839
000220 41 29 89 3d e3 ff 66 3d 86 65 81 be 2e 23 6c be
       0.06697322 0.056396376 -0.2527277 -0.23060295
000230 f5 3c b3 3e 4f fb c2 be a7 b8 12 3e a0 50 fd bd
       0.35007444 -0.38082358 0.14328252 -0.123688936
000240 6d 4b fa bc b4 15 e1 bd 70 71 09 3f 06 96 30 3e
       -0.030553544 -0.10990468 0.53688717 0.1724473
000250 d5 f5 96 3e 9d 12 88 3e c6 79 e7 be 3b ca f4 be
       0.2948443 0.265767 -0.45210093 -0.4781054
000260 7e 18 da 3e ef 59 46 3d 94 04 f4 be 76 70 2e bf
       0.4259681 0.04842561 -0.47659743 -0.6814035
000270 29 81 09 3e ab c6 82 be a3 e8 a1 be 54 ea 14 3d
       0.13428177 -0.25542197 -0.316228 0.036356285
000280 19 14 13 be 89 72 68 3f 74 44 d2 bc 43 18 02 3f
       -0.14363135 0.90799767 -0.025667407 0.5081827
000290 4d f4 8d 3e 7f 81 54 3e 22 19 bd 3d 7a 7c 0c 3f
       0.2772545 0.20752524 0.09233309 0.54877436
0002a0 cd ac 88 be 78 bb 68 be 4d 3e 06 bf a5 db 47 bf
       -0.26694337 -0.22727764 -0.52438813 -0.78069526
0002b0 d8 c7 35 3e ce 76 cd be ad 04 13 bf 2f d4 e9 3e
       0.17752016 -0.40129703 -0.5742901 0.45669696
0002c0 b5 03 cb 3e 4c e6 40 3f bf 4e f8 be 81 7b 43 3f
       0.39651266 0.75351405 -0.48497579 0.76360327
0002d0 83 23 8d 3f 44 86 11 3e 34 5c fb be ca e7 06 3f
       1.1026462 0.14211375 -0.49093783 0.5269743
0002e0 f3 ba c0 bc cb 50 6b 3e 49 32 0a bf 41 3a 82 bf
       -0.023526644 0.22980039 -0.5398298 -1.0174028
0002f0 32 2f 94 3d 0a 9f 67 bf cc ae 69 bd 37 3a ec 3e
       0.07235564 -0.9047705 -0.057051465 0.46138164
000300 d9 4c 65 3e f3 4a 39 3f 43 85 cb be be 3d 39 3f
       0.22392596 0.7237999 -0.39750108 0.72359836
000310 49 56 92 3d 4c af 99 be 79 d1 1d be db b7 28 3f
       0.07145364 -0.30016553 -0.15411939 0.6590554
000320 01 5c 31 3e db 40 bb 3e ff 55 35 be 8c cd 3b be
       0.17320253 0.36572918 -0.17708586 -0.18340129
000330 28 11 97 bd be c1 79 3e d7 fd 11 bf 10 da d8 3e
       -0.07376319 0.24390313 -0.57027954 0.42353868
000340 a7 63 e2 3e 24 14 f1 be a7 72 43 bf e4 70 2d be
       0.44216654 -0.4708568 -0.7634682 -0.16937596
000350 60 5b 8e 3e ce 76 cf bc aa 90 27 3f 6d 06 eb 3e
       0.2780409 -0.025325205 0.65455115 0.4590334
000360 48 b1 0b be e9 4b 2c bf 46 c1 8b 3d d5 c1 94 be
       -0.13641846 -0.6730333 0.06823973 -0.29054132
000370 f1 ce a9 3f d7 92 f4 bd a4 20 a4 3d cf c3 c1 3d
       1.3266279 -0.1194207 0.08014038 0.09461176
000380 a5 78 14 bd 1f f1 f9 be 4a a6 13 be f0 a7 bd bd
       -0.036247868 -0.48816773 -0.14418903 -0.09260547
000390 ad 05 36 bf 85 8b 65 3d 32 44 08 3f f0 77 02 be
       -0.7110241 0.05604126 0.5322906 -0.12741065
0003a0 c0 32 9c bc 90 5d 36 be e9 67 0a be bb 95 eb 3d
       -0.019067168 -0.17809129 -0.13516201 0.11503168
0003b0 e5 f9 ce 3e 72 8f e3 bc 00 1f 3a be 24 72 31 be
       0.4042503 -0.027778361 -0.18175888 -0.17328697
0003c0 89 d2 be 3e b6 5b 1a bf 05 e0 95 be 63 0e 8d bd
       0.3727 -0.6029619 -0.29272476 -0.0688751
0003d0 1d c8 0f be 79 db c7 be 32 10 02 3f 1a ac 55 bd
       -0.14041181 -0.39034632 0.5080596 -0.052166082
0003e0 69 82 a9 3d 78 32 c3 3c 0e 74 10 be 96 ed 35 bd
       0.08276827 0.023827776 -0.14106771 -0.044416033
0003f0 81 32 01 3f c1 c8 fa be 50 2d ad 3e ab 6c 6e be
       0.5046769 -0.48981288 0.33823633 -0.23283641

gnn_base.gnn.gnn1.lin_query.bias f4 [48]
000000 ee 49 38 3e a7 3a 78 be c2 5d a7 be a7 c6 a5 3e
       0.17996952 -0.24241124 -0.3268872 0.32378122
000010 50 52 53 3e f7 8f 03 be 46 ef 80 3d b8 b8 36 bf
       0.20636868 -0.12847887 0.06295638 -0.7137561
000020 1e d1 0e 3f 0d b4 26 be 55 56 9a 3e de 1b 8e be
       0.5578784 -0.16279621 0.3014399 -0.27755636
000030 51 5b 1d bf 9f 7f 2c 3f 29 11 44 3f c9 cc 56 3f
       -0.6146746 0.67382234 0.76588684 0.8390623
000040 45 75 f3 3c a2 1e ee 3d 88 89 72 3d 44 b9 ce bd
       0.029719004 0.116269365 0.05921319 -0.1009393
000050 21 af c0 bc e7 cc 1b 3f 4a c3 3e 3f a3 a8 37 be
       -0.023521008 0.6085953 0.7451674 -0.17935424
000060 e3 6c fc 3e 1f 5a 20 3f b8 76 78 3e 49 29 6c bd
       0.49301824 0.62637514 0.24264038 -0.05765656
000070 6e fb 10 3d d2 01 de 3d 99 38 8b bd d5 c5 61 be
       0.035396032 0.10840191 -0.067979045 -0.22048123
000080 cb 07 4c 3d e0 1c db bd d0 df 84 3e 13 4f 06 bf
       0.04981212 -0.10698867 0.25952005 -0.5246441
000090 4e f9 d2 be 72 8f e1 3e 4d b1 d7 be 31 eb d5 3e
       -0.4120583 0.44054753 -0.42127457 0.41781
0000a0 6d 04 f6 be 28 34 d3 bd e2 68 bb 3e 0d 48 60 3e
       -0.48050252 -0.103126824 0.36603457 0.21902485
0000b0 59 a6 b8 be b6 7c 2a bf dc af 60 3f 2b 32 c7 3e
       -0.36064413 -0.66596544 0.8776834 0.38905463

gnn_base.gnn.gnn1.lin_value.weight f4 [48, 16]
000000 29 10 11 3f df a3 d5 3e f5 09 fd bc 68 91 86 bf
       0.56665283 0.41726586 -0.030888537 -1.0513124
000010 c8 37 80 be 33 3a 0e be 5b e0 ba bd 7f 33 34 be
       -0.25042558 -0.13889389 -0.09124824 -0.17597769
000020 e4 cb 53 be bf 2f 20 3d 08 65 40 3e 67 b5 87 3e
       -0.20683247 0.039108034 0.1878854 0.26505587
000030 25 2f 09 3d 3b 00 71 3e 45 cb ee be a2 04 aa be
       0.033492226 0.23535244 -0.46639457 -0.3320666
000040 c7 7f a4 3e 86 f3 ab bc be 0b 8b 3e 37 95 3f 3e
       0.32128736 -0.020990144 0.27157396 0.18709265
000050 77 aa 25 be 65 00 5c be b0 be 60 3f 8b ee bf 3e
       -0.16178308 -0.21484526 0.87790966 0.3748668
000060 3e 98 ec bd c3 e5 10 3e 80 ae 1f be be 78 b2 bb
       -0.115524754 0.14150147 -0.1559391 -0.0054465225
000070 83 c1 7f 3e 56 aa ce 3e 02 2b 33 bf 51 fc 4b bd
       0.24976163 0.4036433 -0.699875 -0.049801175
000080 7f 98 94 3e b5 fe ab 3e d3 43 1d be 51 1d ca bd
       0.29022595 0.33592764 -0.15357904 -0.09868873
000090 97 e1 03 3f c6 ec 8e 3f 61 e5 3f be 7f b9 e1 be
       0.515161 1.1166008 -0.18739845 -0.44086835
0000a0 56 bf 26 3d 0b 61 41 3d 75 36 59 3e 3d 2d 18 bf
       0.040709816 0.047211688 0.2121218 -0.5944403
0000b0 88 c6 6f bd 39 7f 4a 3e ef 77 02 3d ff ad 01 bf
       -0.058538944 0.19775094 0.03185266 -0.5065612
0000c0 d5 af 30 bf 16 66 04 3e 51 7b e9 be 06 37 b1 bd
       -0.690183 0.12929568 -0.45601895 -0.08653073
0000d0 8c 99 b0 3e 89 fc dd bd e3 5f ca bd 40 da fa 3e
       0.34492147 -0.10839183 -0.0988157 0.48994637
0000e0 77 b8 f6 bc 2c 96 7d 3f 52 c6 fe 3e 36 2e 0c be
       -0.030117257 0.9905727 0.4976068 -0.13689503
0000f0 95 c5 9e 3e e7 fb 35 3f 66 6b 00 be 5e e8 92 be
       0.31010118 0.710875 -0.12540969 -0.28692907
000100 e2 04 19 bf 66 6f c5 3e 1a 41 cd 3e 25 b1 6f 3e
       -0.59773076 0.38561553 0.4008873 0.23407419
000110 ac 17 13 3c 61 a4 83 be 47 41 b3 bd a6 45 4c bf
       0.008977812 -0.2571135 -0.08752685 -0.79793775
000120 ac 86 70 3e 75 87 5b 3f 15 3e 85 be 22 9e 76 be
       0.23488873 0.85753566 -0.26023927 -0.2408376
000130 47 00 ad bf ab b0 c4 3d 91 c1 9f 3f 7a b2 17 be
       -1.351571 0.09604009 1.2480947 -0.14814177
000140 e6 c8 b0 be bb b7 b2 bd 2a fb 2e bf a2 c6 fb 3d
       -0.34528273 -0.0872645 -0.68351996 0.122937456
000150 8c 7f 2e bf ea 5b a0 be d2 e2 80 bf be fa e3 3e
       -0.6816337 -0.31320125 -1.006922 0.4452724
000160 29 e0 9f 3d 46 d5 96 be 6b 50 64 3f bb e3 82 3f
       0.07806427 -0.2945959 0.8918521 1.0225748
000170 64 87 49 3e 5f 53 ac 3e f4 87 46 be 36 a3 33 be
       0.19680554 0.33657357 -0.193878 -0.17542729
000180 14 de be be 05 78 bd 3e 2f 91 b2 3e 05 b0 33 be
       -0.37278807 0.3700563 0.3487639 -0.17547615
000190 f8 bb 0d 3e 47 fd 98 be 10 85 23 bf bd 2b 01 bf
       0.13841236 -0.29880735 -0.6387491 -0.50457364
0001a0 9e ff d3 3e e1 f4 4c bd e3 38 f0 be e4 f6 37 3f
       0.41405958 -0.050038222 -0.469184 0.718611
0001b0 87 5a b9 be 91 a8 94 3e d3 1a aa 3e c2 76 97 bd
       -0.3620188 0.29034856 0.3322359 -0.07395698
0001c0 08 20 0c 3c 90 ff ce 3e 5f be ac 3e 8e 96 00 be
       0.008552559 0.40429354 0.33738992 -0.12557432
0001d0 dc e4 0d 3c 11 92 a6 3d c7 bc 75 bd bd 71 f8 bd
       0.008660521 0.08133329 -0.059994485 -0.12131069
0001e0 7a 81 64 be 80 d5 83 3f 83 d2 20 bd 4b a7 1c be
       -0.22315016 1.029953 -0.03926326 -0.15298192
0001f0 a6 27 1d bf fb 04 96 be 1e b3 5d 3f 1b 3b 5c be
       -0.61388624 -0.29300675 0.86601436 -0.21506922
000200 16 70 d9 3d 0c 9c 73 be db ab 42 3e af e1 fd 3d
       0.10617082 -0.23789996 0.1901087 0.12396561
000210 b2 69 f9 bd 0c 86 92 be 3f 58 1a be e7 62 1f be
       -0.12178363 -0.28617895 -0.15072726 -0.15565072
000220 ea 7b 34 be 1c 9c 09 3f 76 45 40 3f 80 68 57 bf
       -0.17625394 0.5375383 0.7510599 -0.8414383
000230 fe 01 13 bd ea 81 b9 3e 64 50 06 bd b2 04 60 bd
       -0.03589057 0.3623193 -0.03279151 -0.054691978
000240 d9 58 9b 3c 98 1c 2e 3f f6 4a a4 3d 4c 82 df be
       0.018963264 0.6801238 0.0802211 -0.43654096
000250 dd 84 e3 3d fb fe c8 be c2 ad 05 3e c1 9f 96 3e
       0.11109326 -0.39257035 0.13054565 0.29418758
000260 13 48 66 bc 9a d2 0f 3f f9 c7 cf 3e 1f 49 1b be
       -0.01405527 0.5618073 0.40582255 -0.15164612
000270 3c 51 00 bf 0d 67 e9 bc f5 76 81 be 58 be e1 be
       -0.50123954 -0.028491521 -0.2528607 -0.44090533
000280 71 84 f3 be f6 54 98 3d bc 3d 9f 3e 67 88 80 be
       -0.47561982 0.0743808 0.31101787 -0.25104067
000290 75 2c 06 bf 97 2e 27 3f 91 53 c1 be 1c e7 2d bf
       -0.52411586 0.65305465 -0.3775907 -0.6793077
0002a0 2a 6a 82 3f 3b 9b 04 3e ad 0f 05 ba 76 55 20 bf
       1.0188649 0.1294984 -0.0005075883 -0.62630403
0002b0 ce be 83 bf 99 91 82 3e 7f a0 8c 3e 58 0f 02 3f
       -1.0292604 0.25501707 0.274662 0.5080466
0002c0 2d d9 87 3e 1a 8e 41 3f c4 ba 7e 3e 03 cc 01 bf
       0.2653288 0.75607455 0.24875933 -0.5070192
0002d0 00 25 8b 3d 45 9e 01 3f 7a 23 c5 be 4a 89 4f be
       0.067941666 0.50632125 -0.3850363 -0.20267215
0002e0 61 a0 ea be 11 f1 3d 3f 1f 9d 43 be c8 5a 79 be
       -0.45825484 0.74195963 -0.19102906 -0.24351037
0002f0 6f 25 05 bf d5 22 e5 3e 7c 9f a8 3d e8 ec b9 be
       -0.52010244 0.44753137 0.08233544 -0.36313558
000300 20 62 97 3e c1 65 7e 3e 36 7e 7d bd ad 2d 7d bd
       0.2956705 0.24843504 -0.061887942 -0.061811138
000310 5f 22 74 be 91 b3 25 be 93 a5 0e 3e 54 8b 3b be
       -0.23841237 -0.1618178 0.13930349 -0.18314868
000320 11 22 36 bd 92 de 2c be 1f db cb be 1f a4 04 bd
       -0.044466082 -0.16881779 -0.39815614 -0.03238308
000330 f1 69 40 bf ee 79 2a 3f c0 57 af 3e 3e 4a b5 be
       -0.75161654 0.665923 0.34246635 -0.35408205
000340 5b da 0f bf d1 08 1c 3c bb ea db bb f3 60 08 bf
       -0.5619256 0.009523586 -0.0067113317 -0.5327293
000350 e4 4a 9b be c9 25 5c bd 75 6f f5 be f6 6f 36 3f
       -0.30330575 -0.053746972 -0.47936597 0.7126459
000360 50 d4 81 be ab 46 df bd d8 f0 80 3e da d2 14 3f
       -0.25357294 -0.10902151 0.2518375 0.58134234
000370 45 db ad 3e 86 ba d3 bd 9d b7 e7 be b9 c0 e4 be
       0.33956352 -0.10338311 -0.45257273 -0.44678286
000380 a0 72 25 3e e5 b8 72 3d 67 1b 18 3e 57 e5 e0 be
       0.16157007 0.05925836 0.14854203 -0.43924972
000390 0f 70 fa be ae 1d 3d bd d1 2d 92 be e0 63 9a 3e
       -0.4891362 -0.046170883 -0.2855058 0.30154324
0003a0 12 06 04 3f 08 ac 10 3e 32 04 04 3f 80 be e3 bd
       0.5157176 0.14128125 0.515689 -0.11120319
0003b0 fb d9 0f bf 19 72 fa 3d 5d 57 0f bd 1a e1 cc be
       -0.56191987 0.12228794 -0.034995425 -0.4001549
0003c0 d0 54 c9 be 9d 9b 3e bf 04 38 04 3f 7c 96 6b 3e
       -0.3932252 -0.744562 0.51647973 0.23006624
0003d0 7d 77 d9 be be d4 2d 3e 83 bb 35 3e c2 70 fd 3d
       -0.42473975 0.16975686 0.17747311 0.123750225
0003e0 90 a7 73 bc 04 b0 1b bf 7b a7 dc 3e 89 3d d6 3e
       -0.014871493 -0.60815454 0.43096527 0.41843823
0003f0 9f b2 ae be 34 7d b3 3e 3c 5e 7d 3e 7b a5 31 be
       -0.34120652 0.3505646 0.24742979 -0.17348282

gnn_base.gnn.gnn1.lin_value.bias f4 [48]
000000 6e 04 34 bf dc f0 dc bd 7d af 5e bf 09 a3 e3 be
       -0.7031926 -0.10788128 -0.86986524 -0.44460323
000010 9c 73 80 bf 43 39 55 bf 9b db 10 be 8e c0 88 be
       -1.0035281 -0.832905 -0.14146273 -0.26709408
000020 d2 57 49 bf 8f a8 ab be a4 b5 1d bf 6f 21 8e bf
       -0.7864963 -0.33527038 -0.61605287 -1.1103953
000030 84 52 05 bf b4 7a 10 bf 8a 8d f2 be 35 37 65 be
       -0.52079034 -0.5643723 -0.4737361 -0.22384341
000040 0d 99 cb be a1 ce 35 be 4e ca c8 be c6 e1 b5 be
       -0.39765206 -0.17754604 -0.39216846 -0.35523814
000050 f0 9d 83 bf 2e 98 cd be 1f d1 10 bd ce 7a 75 be
       -1.0282574 -0.40155166 -0.035355683 -0.23972628
000060 62 ac 28 bf 19 ee 61 bd fe 83 e1 be ee 76 3e bf
       -0.65888035 -0.05515871 -0.44046015 -0.7440022
000070 db 9f 0d bf 1a ed 4b bf 4f 83 1f bf 1b 40 00 bf
       -0.55322045 -0.79658663 -0.62309736 -0.5009782
000080 16 d8 e8 be 7b d8 ff bd 26 3b 35 bf 0e fa 93 3c
       -0.4547736 -0.12492462 -0.7079338 0.018063571
000090 e4 1a 27 bf 43 97 05 bf 74 27 9d be 15 73 ed be
       -0.65275407 -0.5218393 -0.30694163 -0.46376863
0000a0 7a ca 05 bf d0 5d ce bd 38 e5 c0 be 16 89 63 bf
       -0.5226208 -0.10076487 -0.3767488 -0.8888105
0000b0 10 62 4e bf 93 f0 df be 2e dc 1c bf 44 78 44 be
       -0.8061838 -0.4373823 -0.6127347 -0.19186503

gnn_base.gnn.gnn1.lin_edge.weight f4 [48, 1]
000000 d8 ea fa be 07 b1 fa bf a5 8b 7c 3e c5 bb 7d 3f
       -0.49007297 -1.9585274 0.24662645 0.9911464
000010 09 e0 70 3f 4a 49 0c c0 ae 1c a7 bf 8f e7 c3 be
       0.9409185 -2.1919732 -1.3055627 -0.38262603
000020 64 af 7c bf f8 5b 15 3f 53 66 05 3f c4 9f 39 3f
       -0.98705125 0.5834346 0.5210926 0.7250941
000030 13 60 23 bf e4 45 99 bf 19 78 73 bf bf 03 01 3d
       -0.6381847 -1.1974454 -0.9510513 0.031497713
000040 af b0 18 be b0 b9 89 3f d6 69 7e bf 00 c2 d6 3e
       -0.1491115 1.0759792 -0.9938024 0.41944885
000050 8a 91 29 3d 4e c5 90 3e 83 74 e9 3d 2e 8f 80 bf
       0.041398562 0.28275532 0.11399176 -1.0043695
000060 58 e4 33 bf 85 1b 83 bf 96 7f e7 bd 35 ba 40 bf
       -0.702703 -1.0242773 -0.11303632 -0.7528413
000070 a8 20 2a 3e df 4c 9a be 6b 6e 95 bf 87 4a 70 3e
       0.1661402 -0.30136773 -1.1674322 0.2346593
000080 8b 56 96 bf 17 1e 8d 3e 5d c1 92 bf b4 09 cb be
       -1.1745161 0.2756202 -1.146526 -0.3965584
000090 77 91 96 3c d6 4d 13 bf 50 57 06 c0 c5 a2 8c 3f
       0.01837991 -0.57540643 -2.0990791 1.0987173
0000a0 cd 5e 33 bf 3c ec 0e 3f cb b9 1a 3f 86 ae 06 be
       -0.7006653 0.55829215 0.6043975 -0.13152513
0000b0 63 8b 0e 3d ce c7 71 be 8e ac 04 3d 18 97 41 3f
       0.0348009 -0.23611376 0.032391123 0.75621176

gnn_base.gnn.gnn1.lin_skip.weight f4 [16, 16]
000000 45 03 37 bd e6 3e b4 3e af d4 c9 3e f0 70 19 be
       -0.044680852 0.35204238 0.39420077 -0.14984488
000010 c6 8d 3d be d8 56 27 3f 9b a2 3c bf a9 f8 33 3c
       -0.18511114 0.6536689 -0.73685616 0.010984578
000020 32 2e 21 bf 1f 1d c5 bd 9c a1 de bd 56 55 cd 3e
       -0.62961113 -0.09624695 -0.10870668 0.4010417
000030 96 60 8a be 5d a7 f4 bd 7e 84 b3 3d b7 34 eb be
       -0.27026814 -0.119459845 0.08765505 -0.45938656
000040 2c d0 d4 3d 58 46 1d bf 87 64 d2 3b 3b 0a 8d 3d
       0.10391268 -0.6143546 0.006420675 0.06886717
000050 58 42 ac be eb c7 2a 3f a6 a1 1f be fa b6 57 bd
       -0.33644366 0.667113 -0.15589008 -0.052664734
000060 d1 d1 61 3e ab 21 28 bf d7 f5 8e 3d 62 64 95 be
       0.22052695 -0.65676373 0.06980484 -0.29178149
000070 5e fb 37 3e 79 32 71 be 13 c8 03 bf 17 b9 21 3f
       0.17966983 -0.2355441 -0.51477164 0.6317305
000080 83 cb bb 3e 09 d9 8f be 3c 4b 2e 3e e7 4e 26 be
       0.36678705 -0.28095272 0.17020887 -0.16241036
000090 36 b4 8f be ef bd 12 3f 76 56 1c bf a8 85 17 3e
       -0.28067178 0.57321066 -0.6106943 0.1479708
0000a0 fd 44 c3 be 56 a6 bb be 1d ce c2 bc 4b c6 30 bf
       -0.3813857 -0.36650342 -0.023779923 -0.6905257
0000b0 67 66 50 be b6 29 cf be b3 41 98 3d 87 46 bb 3d
       -0.20351563 -0.4046151 0.07434406 0.091443114
0000c0 07 c7 0b 3e fa 07 e5 be fd 57 e9 be 29 1e 60 3f
       0.13650142 -0.44732648 -0.45574942 0.8754602
0000d0 b9 b4 9f be 0a 13 e3 bd 86 f6 ac be c2 6f 6b 3e
       -0.31192568 -0.11087616 -0.33781832 0.22991851
0000e0 fc ff b6 3e f8 2b 16 bf 49 cb 6a be fa 14 c2 be
       0.35742176 -0.5866084 -0.2292911 -0.3790663
0000f0 37 bf 01 3e 16 ec 23 bf 53 ac e1 3d 59 dc 2a 3f
       0.12670599 -0.64032114 0.11019196 0.66742474
000100 72 6f e0 be 6c 74 da be 66 9f 81 3d 0d 5e 8a 3e
       -0.43835026 -0.42666948 0.06329231 0.2702488
000110 35 ef c5 be 27 51 74 3e f6 7a 5c 3e ab 93 3c 3c
       -0.38659063 0.23859082 0.21531281 0.011509816
000120 b6 10 d6 3e cd cf 60 3e 27 33 85 3e 26 ae 94 3e
       0.41809624 0.2195427 0.2601559 0.29039115
000130 d8 e9 a5 bf d6 c4 1c 3e 53 4a 26 3d 4f 40 af be
       -1.2961988 0.15309462 0.040598225 -0.3422875
000140 b6 25 42 bd f5 5a 3a 3d 35 19 7f be 8f 85 04 bc
       -0.047399245 0.0454969 -0.2491196 -0.0080884835
000150 fc e8 51 bd df 15 6c 3e 64 63 02 bf 84 39 00 3f
       -0.05124758 0.23055218 -0.5093291 0.5008776
000160 2e 22 6a 3d 39 70 15 bf a5 5a 06 3e a6 83 de 3c
       0.057161503 -0.58374363 0.13120516 0.027162384
000170 0e 7c 54 3e 7d 1a 2b 3e 49 ab 2f bf a1 91 c9 3e
       0.20750448 0.16709323 -0.68620735 0.3936892
000180 f2 58 98 3d 3d 4a 97 3e e8 60 65 3e b7 6a 07 3d
       0.0743884 0.29548827 0.22400248 0.033060756
000190 b8 74 ab 3c ae d9 e9 be c1 b7 95 be 08 d9 69 be
       0.02092968 -0.4567389 -0.29241756 -0.22836697
0001a0 d2 4f 17 3f 29 05 cc 3e 81 ad b5 be 86 75 6f 3e
       0.5910617 0.39847687 -0.35483935 0.23384675
0001b0 de 54 d0 bf 00 8b 4e 3f 88 1b 00 3e 70 ce 92 3e
       -1.62759 0.8068085 0.12510502 0.28673124
0001c0 2c ce cf 3d 37 fc 08 3f d9 77 31 3f 4c a6 00 3e
       0.10146746 0.5350985 0.693235 0.12563437
0001d0 5c 61 f1 3e 9f f4 ce be 5a 8c 92 bf cb b2 9a be
       0.47144592 -0.40421006 -1.1449082 -0.30214533
0001e0 6e 48 c6 be 4b 95 36 3f 4a 41 c9 3d 05 9f cc 3c
       -0.38727134 0.71321553 0.09826906 0.02497817
0001f0 bd 05 00 bf db 5e cb bd aa 81 d1 be 66 e3 75 3c
       -0.50008756 -0.099302016 -0.40919238 0.015007829
000200 97 1c 47 3e d4 51 02 3f 6e df 94 be b6 19 6b be
       0.194445 0.5090611 -0.29076713 -0.22959027
000210 09 78 26 3f a3 8b 09 bf 66 61 7f 3e 8f 02 3b be
       0.6502691 -0.53728694 0.24939498 -0.18262695
000220 f9 2e 4c be 6a 20 e6 3d c6 2b f2 be e0 13 19 bf
       -0.19939794 0.11236651 -0.4729902 -0.5979595
000230 a2 e1 b9 bd 45 af b1 3d 08 d5 bf 3e 6f 22 86 be
       -0.09076239 0.08676008 0.37467217 -0.26198146
000240 ca 21 28 be 84 4e a6 be 68 b5 dc be b0 66 79 be
       -0.1641914 -0.32481778 -0.43107152 -0.24355578
000250 53 74 2c bf 26 b9 b5 be 05 99 07 be 35 31 f0 3e
       -0.67364997 -0.3549282 -0.13241966 0.46912542
000260 1c 96 e2 3e dd 77 06 bf 99 61 0f 3f 2b 96 6d 3f
       0.4425515 -0.52526647 0.560083 0.92807263
000270 66 9c 0a bc 31 08 d7 3e 0c 99 e0 bc 2e ac 00 be
       -0.00846014 0.41998437 -0.027416728 -0.12565681
000280 b2 04 5e 3f c5 0a c3 3e ec 9b 6d be 0b 3f 41 bf
       0.86725914 0.38094154 -0.2320401 -0.7548682
000290 02 6a 87 3e ab c1 21 bf 5d fe 8d bf 71 7a 90 3e
       0.26448065 -0.6318614 -1.109325 0.28218415
0002a0 b4 87 af be 40 32 1a 3f e0 20 c6 3e 0c fd 06 be
       -0.3428322 0.60232925 0.38696957 -0.13182467
0002b0 b4 47 ac 3b e9 65 f9 3c 4d 3a ae be 6c 07 69 3e
       0.005257571 0.030444102 -0.34028855 0.22756737
0002c0 0b 3c 16 bd 29 a5 6a bf 4d 16 df bd 09 3b 07 be
       -0.036678355 -0.91658264 -0.108929254 -0.13206114
0002d0 87 0b 90 3e 05 9e 0f bf 88 73 c6 bd 4f 7c bf be
       0.28133795 -0.56100494 -0.096900046 -0.37399527
0002e0 2a 13 7e be 86 33 16 be 40 4d bf 3c a6 4e ab 3e
       -0.24811998 -0.14668092 0.023352265 0.33458441
0002f0 7c 07 40 3e 67 f2 ce 3e df 92 e9 3e e1 5d 09 3e
       0.18752855 0.40419313 0.45619866 0.13414718
000300 f3 b9 08 3e 69 2f 5c 3f f6 56 66 be 18 ee 83 be
       0.13352184 0.8600984 -0.2249411 -0.2576759
000310 ce 78 f8 be 23 aa e8 3e 1a 94 59 3e 89 41 ce be
       -0.48529667 0.45442304 0.21247903 -0.40284374
000320 57 38 ed 3e 80 19 02 bf 44 2a b9 be 4c f9 a0 be
       0.46332046 -0.5082016 -0.3616506 -0.31440198
000330 77 9b 43 bf 9c b8 94 3f 61 74 f7 3e 43 ec 66 bf
       -0.76409096 1.1618838 0.48330978 -0.90204257
000340 b7 b3 2b 3e fa 81 d1 3c 3d 2e d0 be 76 ab 2e bf
       0.16767775 0.025574673 -0.40660277 -0.6823038
000350 32 bf 51 be e0 6e 8e 3e 94 6c 24 bf 3f a9 ad be
       -0.20483091 0.27818966 -0.6422818 -0.33918187
000360 70 a2 ba be 15 a5 b6 bd ad 95 21 3f 53 e3 86 3e
       -0.36452055 -0.08918206 0.6311901 0.2634531
000370 a9 92 94 3e 3b d1 33 3e b5 67 97 bd f1 16 52 bf
       0.29018143 0.17560284 -0.073928274 -0.82066256
000380 ce e1 a9 bd a7 e1 fd 3e 04 39 6f 3e 50 57 24 bf
       -0.08295022 0.49586222 0.23361593 -0.6419573
000390 af f6 88 bc 60 63 97 be d0 67 65 3d 4c 54 56 bf
       -0.01671919 -0.29568005 0.056007206 -0.83722377
0003a0 cf 54 bc 3c 13 c4 8f 3e 21 5a ac 3e d9 34 9f 3e
       0.022989659 0.2807928 0.33662513 0.31095007
0003b0 ad f0 7e bf c6 e7 25 3e d5 c1 0f 3f 3b 34 1d bf
       -0.9958599 0.16201696 0.5615514 -0.6140782
0003c0 16 27 ec 3e 5c 22 d2 3e 82 94 9a 3e 62 d1 22 be
       0.4612357 0.4104184 0.30191427 -0.15900186
0003d0 df 3c ba bc 03 68 ee 3d 8b fc dc 3d 11 ee 8d bf
       -0.022734104 0.116409324 0.10790356 -1.1088277
0003e0 f5 f1 e9 3d 59 f0 0e 3f 8a 44 00 bf 4c 59 30 bd
       0.11423103 0.5583549 -0.5010458 -0.04305391
0003f0 66 33 87 bf ba 98 64 3e 2b 12 2e 3f 9b cf af be
       -1.056256 0.22323886 0.6799647 -0.34338078

gnn_base.gnn.gnn1.lin_skip.bias f4 [16]
000000 3d b3 0d bf 1a 46 4d be 9f 44 c4 be 01 d5 77 be
       -0.5535162 -0.20046273 -0.38333604 -0.24202348
000010 db c3 57 bf 5e 9b 52 bf cb 5c 81 3e c6 d7 12 bf
       -0.84283227 -0.8226832 0.25266108 -0.57360494
000020 d6 1f 47 bf 83 c2 8d be d8 f2 ad be 66 95 3e bf
       -0.7778295 -0.27687463 -0.33974338 -0.74446714
000030 3d ab 49 bf 6c 3f 2c bf 96 17 16 bf a6 fe 82 be
       -0.78776914 -0.67284274 -0.5862974 -0.25584906
